Gla_DOS.onnx (onnx, 206292 bytes, 9 tensors)

layer1.weight f4 [32, 1536]
0.013264752 -0.021422276 -0.020113619 1.634073e-06 -0.0070583564 0.0017654046 -0.001936988 0.02038023
-0.030712944 0.023618482 0.019456906 0.00707537 -0.010095938 -0.0011962934 -0.00027111205 0.026703976
0.015658375 0.054035418 -0.004605855 0.004651228 -0.0007270619 -0.021094803 0.022298116 -0.029386226
0.017639846 -0.01678087 0.016949123 -0.005494082 -0.010294529 0.03588025 0.01201237 -0.027421078
-0.022488212 -0.03335902 -0.018300114 -0.024291072 -0.030114414 0.013421353 0.0011776161 0.019924693
0.026066503 -0.013113502 -0.0032136333 -0.004331779 -0.038996484 -0.007521211 0.00658001 -0.018519351
-0.0072410256 0.040260915 -0.0072280997 -0.005783798 0.015761718 0.04379112 -0.0011345743 0.022841707
-0.017300537 -0.0047339234 -0.009626327 -0.020994298 0.02582985 0.0060945572 0.018242287 -0.010302198
-0.018633787 -0.017324902 -0.00953434 -0.007639006 0.022803362 0.0035251419 -0.03368278 0.0056988876
-0.004265051 -0.0082830405 -0.013937901 0.0039196326 9.581096e-05 -0.01061015 0.0025885922 0.0003184385
-0.012438316 -0.037909817 -0.0070473896 -0.002068869 -0.0061270283 0.017856745 -0.018754998 -0.029122125
0.00034816016 -0.027004039 -0.030099403 -0.017706811 0.00638467 -0.015178095 0.02304263 -0.022506963
0.01806171 -0.022854593 0.013155401 0.0037645265 0.0010462833 -0.0192316 -0.009977118 0.012099945
-0.008939863 0.01749467 -0.016314391 -0.009607479 -0.013373783 0.02364661 -0.015685074 0.029784795
0.023215663 0.042456638 0.017297614 -0.014611146 -0.017994609 -0.006664622 -0.0094533805 0.0009665237
-0.000653589 -0.01807904 -0.00037892628 0.012479888 -0.0021853019 -0.008677231 -0.0033204441 -0.020205304
-0.0014051133 -0.021367464 0.015812173 0.0071579274 0.016131364 0.020096505 0.014991699 -0.017113639
0.013859602 -0.0020282315 0.007975548 -0.0068847006 -0.03794429 -0.018969206 -0.0033586333 0.011294427
-0.021629566 0.0017183757 -0.012635319 -0.021801878 -0.011737208 -0.0063363602 0.01311838 0.023564648
0.0008451512 -0.008973881 0.008829253 -0.017952578 -0.0068730325 0.011372383 -0.0027500947 -0.011349602
0.020872828 -0.009793869 0.015362369 -0.0026417803 -0.017519169 -0.028866189 -0.010380309 0.0044805096
0.007930476 -0.00086550065 0.018769994 -0.01778416 0.0076925517 -0.021760112 -0.018748168 0.016300395
0.009183362 -0.0011197113 0.0032263685 -0.004080232 -0.00963294 -0.01838534 -0.012557628 0.010554354
-0.01873637 0.019889796 -0.007493874 -0.017186182 0.023928845 -0.0099962475 -0.016649565 0.022744171
-0.00082159846 0.015175135 -0.0034578696 -0.011423139 0.021875456 0.01207204 0.0015579057 -0.021315055
-0.00693868 0.011858808 -0.009809503 0.004067583 0.0015912948 -0.01209042 0.029603703 0.0067727827
-0.0035757658 0.029335912 -0.012059594 -0.020875892 0.008977414 -0.003348579 0.0015003027 0.028991029
-0.016127678 0.003474103 0.013416231 0.021357924 0.012442554 0.00354522 0.013911845 0.009755405
0.02115109 -0.027122129 0.019151276 0.020697793 -0.005490282 0.016194532 -0.019075435 -0.020411037
0.008191099 -0.019041188 0.012167792 0.024301277 -0.026407028 -0.012620277 -0.018584745 -0.029328756
-0.0030961072 0.034190077 0.029266635 0.002226335 -0.031253 0.0073530613 -0.016434962 0.0015173691
-0.016335776 0.009892771 0.020562928 0.005379865 0.010355217 0.01410376 -0.02527123 0.028934132
00000000: 6754 593c c57d afbc 51c5 a4bc 5252 db35
00000010: c949 e7bb 2665 e73a 88e2 fdba 71f4 a63c
00000020: b699 fbbc 8c7b c13c 1764 9f3c 81d8 e73b
00000030: 6f69 25bc f2cc 9cba 0b24 8eb9 4cc2 da3c
00000040: fe45 803c 3e54 5d3d b6ec 96bb 5469 983b
00000050: 4c98 3eba 02cf acbc 8aaa b63c 62bb f0bc
00000060: 7081 903c 0978 89bc e3d8 8a3c b307 b4bb
00000070: 62aa 28bc 2bf7 123d 88cf 443c 2ba2 e0bc
00000080: 3339 b8bc 78a3 08bd 1fea 95bc 12fe c6bc
00000090: 81b2 f6bc 3ce5 5b3c 3d5a 9a3a 1c39 a33c
000000a0: 6b89 d53c 04da 56bc d29b 52bb 99f1 8dbb
000000b0: c7ba 1fbd 7e74 f6bb 209d d73b e5b5 97bc
000000c0: 2046 edbb a1e8 243d b2d9 ecbb 0486 bdbb
000000d0: b81e 813c 515e 333d ffb5 94ba 881e bb3c
000000e0: dbb9 8dbc 071f 9bbb beb7 1dbc 3cfc abbc
000000f0: 1f99 d33c dab4 c73b d970 953c 8dca 28bc
00000100: e2a5 98bc f4ec 8dbc ec35 1cbc a050 fabb
00000110: 1ece ba3c 1106 673b f4f6 09bd bcbd ba3b
00000120: d7c1 8bbb 97b5 07bc cb5b 64bc 4370 803b
00000130: 1eee c838 32d6 2dbc 5fa5 293b 18f4 a639
00000140: 14ca 4bbc 5347 1bbd caed e6bb dd95 07bb
00000150: 3dc5 c8bb 4f48 923c 15a4 99bc 8691 eebc
00000160: 4489 b639 9337 ddbc 0693 f6bc e00d 91bc
00000170: 7e36 d13b 8bad 78bc e6c3 bc3c 8660 b8bc
00000180: 27f6 933c 8e39 bbbc c089 573c 46b6 763b
00000190: 7123 893a 978b 9dbc 1177 23bc d93e 463c
000001a0: 8178 12bc fb50 8f3c c2a5 85bc b068 1dbc
000001b0: b61d 5bbc 89b6 c13c fc7d 80bc 3eff f33c
000001c0: c62e be3c 03e7 2d3d bab3 8d3c 9763 6fbc
000001d0: 6e69 93bc e762 dabb 5ae2 1abc 4f5e 7d3a
000001e0: 9e55 2bba 7f1a 94bc a0aa c6b9 7278 4c3c
000001f0: 4837 0fbb f22a 0ebc cf9b 59bb 9885 a5bc
00000200: c72b b8ba d20a afbc 8888 813c 0c8d ea3b
00000210: ec25 843c 6da1 a43c be9f 753c e731 8cbc
00000220: 6213 633c 14ec 04bb dfab 023c 0e99 e1bb
00000230: 796b 1bbd 4f65 9bbc 841c 5cbb 430c 393c
00000240: 7d30 b1bc 1f3b e13a 5e04 4fbc da99 b2bc
00000250: 6b4d 40bc 3ea1 cfbb 79ee 563c a60a c13c
00000260: 238d 5d3a 2f07 13bc 92a8 103c 4911 93bc
00000270: 2d37 e1bb 3b53 3a3c ef3a 34bb aef3 39bc
00000280: 7efd aa3c 7776 20bc 72b2 7b3c b821 2dbb
00000290: 5c84 8fbc c978 ecbc 2c12 2abc 3dd1 923b
000002a0: d4ee 013c c4e2 62ba 88c3 993c 16b0 91bc
000002b0: cd11 fc3b 4342 b2bc c295 99bc 6888 853c
000002c0: d075 163c 47c3 92ba 7b71 533b 78b3 85bb
000002d0: 7bd3 1dbc da9c 96bc 82be 4dbc 2bec 2c3c
000002e0: 047d 99bc edef a23c 2c8f f5bb 09ca 8cbc
000002f0: 6d06 c43c 4dc7 23bc ab64 88bc fc51 ba3c
00000300: 8a60 57ba 21a1 783c 6d9d 62bb 1e28 3bbc
00000310: 2834 b33c cec9 453c a432 cc3a e99c aebc
00000320: de5d e3bb 724b 423c 0ab8 20bc 5c49 853b
00000330: fe92 d03a e616 46bc 7783 f23c 38ee dd3b
00000340: 6557 6abb de51 f03c 9a95 45bc eb03 abbc
00000350: 0116 133c d573 5bbb cea5 c43a 987e ed3c
00000360: 311e 84bc c7ad 633b c0cf 5b3c d0f6 ae3c
00000370: dbdb 4b3c ec56 683b 82ee 633c 22d5 1f3c
00000380: 0d45 ad3c 3a2f debc 23e3 9c3c 6b8e a93c
00000390: d3e7 b3bb 65aa 843c 1644 9cbc 0c35 a7bc
000003a0: f633 063c 44fc 9bbc 6b5b 473c 7913 c73c
000003b0: 8d53 d8bc 47c5 4ebc 093f 98bc dc42 f0bc
000003c0: 0fe8 4abb e50a 0c3d 95c0 ef3c b4e7 113b
000003d0: 2503 00bd f3f1 f03b 9da2 86bc 75e2 c63a
000003e0: 9bd2 85bc 4a15 223c 9673 a83c 9449 b03b
000003f0: eea8 293c 7513 673c 9c05 cfbc 4607 ed3c

layer1.bias f4 [32]
0.020837817 -0.0013752048 -0.02502887 0.004321938 0.018147234 0.001820714 -0.0044292896 0.0109292455
-0.011082423 -0.028958216 0.01412755 -0.017844371 -0.025361218 -0.017453413 0.013361247 -0.020016907
-0.0055826865 -0.020748362 0.01112357 0.003623338 0.020591984 -0.0026981712 0.02164403 -0.023129812
-0.018633487 0.0022855618 0.005941112 -0.023755556 0.019852746 -0.016234947 0.009346951 -0.0038035444
00000000: 12b4 aa3c 3740 b4ba 5809 cdbc 0b9f 8d3b
00000010: 82a9 943c 06a5 ee3a 9323 91bb 9410 333c
00000020: 0d93 35bc c839 edbc 3d77 673c 5c2e 92bc
00000030: 54c2 cfbc 76fa 8ebc 22e9 5a3c 7ffa a3bc
00000040: f8ee b6bb 78f8 a9bc a23f 363c 8675 6d3b
00000050: 85b0 a83c cdd3 30bb d24e b13c bb7a bdbc
00000060: 41a5 98bc 5dc9 153b a9ad c23b 039b c2bc
00000070: 3aa2 a23c 27ff 84bc f423 193c e344 79bb

layernorm1.weight f4 [32]
0.99377006 0.9851638 0.99806017 0.9663777 0.98854434 0.9984358 1.002037 0.99955285
0.99686915 0.98325413 1.0153091 1.0116142 0.996855 1.0123707 0.97826916 0.9975314
0.98118 1.003596 1.0082084 0.99691963 1.005467 0.9881393 1.0363493 0.99761266
1.0673912 0.9816477 1.0153687 1.0196936 1.0159079 0.98454803 0.9970308 0.99702096
00000000: b767 7e3f b233 7c3f df80 7f3f 8764 773f
00000010: 3e11 7d3f 7d99 7f3f c042 803f b2e2 7f3f
00000020: d132 7f3f 8bb6 7b3f a6f5 813f 937c 813f
00000030: e431 7f3f 5d95 813f d96f 7a3f 385e 7f3f
00000040: 9d2e 7b3f d575 803f f90c 813f 2036 7f3f
00000050: 25b3 803f b2f6 7c3f 18a7 843f 8b63 7f3f
00000060: 46a0 883f 434d 7b3f 9af7 813f 5285 823f
00000070: 4509 823f 570b 7c3f 693d 7f3f c43c 7f3f

layernorm1.bias f4 [32]
-0.011059698 0.00041189356 -0.01107493 -0.009177054 -0.01399897 -0.0072569633 -0.006276226 -0.0006872532
-0.015169428 -0.020406473 0.0029513044 0.009122876 -0.015612899 0.01566044 -0.004668963 -0.01550251
0.008583395 0.0042126663 0.044082765 -0.017948862 0.013234569 -0.021459622 0.025621837 -0.012953093
0.0866288 0.022638522 0.027754549 0.020177322 0.010046383 0.014513417 -0.016564738 -0.0118182935
00000000: bc33 35bc 6bf3 d739 a073 35bc 5b5b 16bc
00000010: f05b 65bc d2cb edbb cda8 cdbb c828 34ba
00000020: 3189 78bc 7a2b a7bc ac6a 413b 1e78 153c
00000030: 3fcd 7fbc 534a 803c 1afe 98bb 3dfe 7dbc
00000040: 5ea1 0c3c 680a 8a3b 2190 343d 7e09 93bc
00000050: ced5 583c 17cc afbc e3e4 d13c 3639 54bc
00000060: 716a b13d 6c74 b93c 825d e33c e94a a53c
00000070: 9699 243c afc9 6d3c c6b2 87bc 84a1 41bc

blocks.0.fcn_layer.weight f4 [32, 32]
0.124236606 0.15256263 -0.09114162 -0.08248029 0.070713244 0.047599018 -0.072928146 -0.16592956
0.066066325 0.10233076 -0.052356206 0.027798008 -0.12605557 -0.01611538 -0.009945218 -0.047502775
0.107808016 0.079963885 0.13469593 0.15464436 -0.06004128 0.15455186 0.22038044 0.07019789
-0.066783495 0.10294137 0.16850258 0.093301944 0.089202695 -0.15112136 -0.12773716 0.04429772
-0.15162905 0.1722955 0.054249506 0.10923204 -0.04099509 0.1755169 -0.02293203 0.10983141
0.0026951465 0.07041034 -0.13256434 0.045857124 -0.16116598 -0.07946797 0.1217025 -0.09553465
-0.10090036 0.09412882 0.092695735 0.128092 0.16238454 0.045957733 0.06426425 0.10320209
0.091728024 -0.07363581 0.13409743 -0.18119581 0.028265232 -0.1578662 0.085962996 0.12375162
-0.104586154 -0.11904109 -0.1259692 0.109897405 -0.06888881 -0.100190304 0.10158178 0.06850959
-0.124823086 0.1176877 -0.086667836 0.0044829566 0.10073271 -0.1338071 -0.14736071 -0.17287108
0.11721032 0.06384498 0.13259609 -0.09325084 0.025990983 -0.1452326 -0.13735257 0.0023302885
0.14744098 0.18951237 0.05752507 -0.06014578 -0.08251365 -0.051971838 0.020868964 -0.07436553
-0.015232407 0.13057974 0.0984959 -0.17407072 -0.025316468 0.15249279 0.037417397 0.16535817
-0.050790068 0.11482164 0.12049829 0.069552995 -0.16119201 0.081237905 0.09456209 -0.10056467
-0.19681762 -0.031106453 -0.11002318 0.1009258 -0.012241264 -0.1000743 -0.021000383 -0.039044283
-0.073053464 -0.11449486 -0.17521882 0.023997406 -0.015041529 0.004813661 -0.035835676 0.072242394
-0.07984519 0.16897137 -0.038754262 0.0179126 -0.03467784 0.10905285 0.09502629 -0.05787551
0.018238932 -0.023018964 0.18095706 -0.16875695 0.118059926 -0.113089435 0.14714916 -0.009393074
0.11217301 -0.015353106 0.015091171 0.10687765 -0.11856282 0.14062856 0.010194361 0.16773565
-0.0033431954 0.02470068 0.07495518 0.088626735 -0.024175605 -0.1386959 -0.04695915 0.17580959
0.09803808 -0.06429703 -0.04444552 0.019606862 0.14891788 -0.046874803 -0.08420281 0.15923892
-0.16240075 0.113299385 -0.016510306 -0.108384684 0.06483072 -0.14357398 0.124253854 -0.14539213
-0.08651932 -0.13926008 -0.060782555 -0.07407053 -0.01858839 0.07852717 0.060700506 -0.13002865
0.22157335 0.09836338 0.15246782 0.18732348 -0.162692 0.04347055 -0.16538401 -0.01889369
-0.14988843 0.003965769 0.098486535 -0.027033085 -0.13411346 -0.06298427 -0.048138455 -0.14444497
0.055474047 0.16880178 -0.029790165 -0.07832873 -0.01092635 0.15288632 -0.1614895 -0.10484734
-0.1691323 0.14198895 -0.11633688 0.14129904 -0.15782385 -0.03512446 -0.01197639 0.0018414326
0.09987112 -0.040838197 -0.11783672 0.16476303 -0.1376834 0.19080052 -0.069797516 -0.17235547
-0.13327332 0.025085801 0.06657449 -0.06427285 0.09896131 0.08976984 0.11050111 0.043077007
-0.11919533 -0.16594024 0.118237704 0.0014567504 -0.16820697 -0.10246201 -0.15570685 0.08645228
-0.10952972 0.01965882 0.12477753 -0.024118751 -0.038359713 0.052623704 -0.07236902 0.012324044
0.21219732 0.11696904 0.041274928 0.0988351 -0.19935402 0.1266406 0.17246735 0.043945346
00000000: c36f fe3d 6139 1c3e 75a8 babd 6deb a8bd
00000010: 1bd2 903d 30f7 423d 5a5b 95bd 70e9 29be
00000020: c84d 873d ca92 d13d 7673 56bd a6b8 e33c
00000030: b614 01be 6704 84bc 45f1 22bc 4592 42bd
00000040: 73ca dc3d 1bc4 a33d bbed 093e 175b 1e3e
00000050: d8ed 75bd d842 1e3e 69ab 613e e9c3 8f3d
00000060: c9c5 88bd edd2 d23d f18b 2c3e 1715 bf3d
00000070: e7af b63d 8fbf 1abe 88cd 02be 8771 353d
00000080: a544 1bbe 3b6e 303e bb34 5e3d 0cb5 df3d
00000090: 78ea 27bd b4ba 333e f4db bbbc 4aef e03d
000000a0: 0ea1 303b 4c33 903d f2be 07be aed4 3b3d
000000b0: b208 25be 1ac0 a2bd 293f f93d aca7 c3bd
000000c0: d9a4 cebd 9cc6 c03d 43d7 bd3d 8d2a 033e
000000d0: 2248 263e 2d3e 3c3d fa9c 833d 9e5b d33d
000000e0: e7db bb3d 5fce 96bd d650 093e 658b 39be
000000f0: 7d8c e73c ada7 21be 5e0d b03d 7d71 fd3d
00000100: 4431 d6bd d1cb f3bd 12fe 00be e411 e13d
00000110: 9415 8dbd 9330 cdbd 1c0a d03d c24e 8c3d
00000120: 3fa3 ffbd 4006 f13d e87e b1bd c4e5 923b
00000130: f34c ce3d ba04 09be bae5 16be 1e05 31be
00000140: f70b f03d 28c1 823d 45c7 073e 4cfa bebd
00000150: 0beb d43c dbb7 14be 27a6 0cbe c1b7 183b
00000160: c5fa 163e 880f 423e 689f 6b3d 6c5b 76bd
00000170: ebfc a8bd 6ce0 54bd 64f5 aa3c f44c 98bd
00000180: 5891 79bc b2b6 053e 38b8 c93d 983f 32be
00000190: 7b64 cfbc 1227 1c3e fc42 193d a753 293e
000001a0: 3f09 50bd 9c27 eb3d cfc7 f63d cd71 8e3d
000001b0: 850f 25be 0f60 a63d c5a9 c13d daf4 cdbd
000001c0: 8f8a 49be f6d2 febc d553 e1bd 30b2 ce3d
000001d0: 958f 48bc c1f3 ccbd ff08 acbc e6ec 1fbd
000001e0: 0e9d 95bd 487c eabd 906c 33be 3596 c43c
000001f0: bf70 76bc eabb 9d3b 6ec8 12bd d2f3 933d
00000200: e085 a3bd d506 2d3e cabc 1ebd 72bd 923c
00000210: 5a0a 0ebd 1a57 df3d 259d c23d df0e 6dbd
00000220: d069 953c 4492 bcbc cf4c 393e 9fce 2cbe
00000230: 67c9 f13d 6f9b e7bd 45ae 163e 68e5 19bc
00000240: f7ba e53d 988b 7bbc f540 773c abe2 da3d
00000250: 10d1 f2bd ef00 103e 4006 273c e5c2 2b3e
00000260: 8319 5bbb 1559 ca3c 1a82 993d ef81 b53d
00000270: eb0b c6bc 4c06 0ebe 3d58 40bd 6e07 343e
00000280: 30c8 c83d 29ae 83bd 810c 36bd 929e a03c
00000290: ee7d 183e cbff 3fbd 8672 acbd 870f 233e
000002a0: 624c 26be 8209 e83d 9f40 87bc caf8 ddbd
000002b0: f8c5 843d 0f05 13be ce78 fe3d ade1 14be
000002c0: 0b31 b1bd 329a 0ebe 21f7 78bd 4ab2 97bd
000002d0: ae46 98bc dad2 a03d 18a1 783d 3b26 05be
000002e0: 20e4 623e bd72 c93d 8620 1c3e bad1 3f3e
000002f0: bb98 26be 2d0e 323d 6d5a 29be f1c6 9abc
00000300: 5a7c 19be 48f3 813b 4fb3 c93d 7d74 ddbc
00000310: 0a55 09be e6fd 80bd d42c 45bd 62e9 13be
00000320: c138 633d 60da 2c3e 810a f4bc d06a a0bd
00000330: 6f04 33bc 3b8e 1c3e 815d 25be 34ba d6bd
00000340: 0531 2dbe 8d65 113e 0842 eebd b2b0 103e
00000350: 939c 21be aade 0fbd 9f38 44bc 3a5c f13a
00000360: 3b89 cc3d f445 27bd 6154 f1bd a4b7 283e
00000370: e1fc 0cbe 3661 433e 00f2 8ebd f47d 30be
00000380: cd78 08be bd80 cd3c 3558 883d 7ca1 83bd
00000390: 3aac ca3d 40d9 b73d 684e e23d 8471 303d
000003a0: ae1c f4bd 3dec 29be 9c26 f23d 6ff0 be3a
000003b0: 733e 2cbe 9ad7 d1bd 9e71 1fbe e50d b13d
000003c0: 1e51 e0bd 890b a13c 5d8b ff3d b094 c5bc
000003d0: 131f 1dbd f48b 573d 3536 94bd c9ea 493c
000003e0: 414a 593e 778d ef3d e60f 293d 0f6a ca3d
000003f0: 7623 4cbe 13ae 013e 489b 303e 0900 343d

blocks.0.fcn_layer.bias f4 [32]
0.0026072664 0.14422761 -0.07103737 -0.018213512 0.10929031 0.101118505 0.061403766 -0.07961772
-0.0061496645 0.1126312 -0.11271224 -0.01945175 0.13430841 0.041537706 -0.14937049 0.0398028
-0.11492003 -0.15903196 -0.14038695 0.18391551 0.08948828 -0.03820392 -0.021728182 0.05406611
0.13949925 0.07132714 -0.12177477 0.16577035 -0.021933343 0.09340487 -0.036905613 0.09965273
00000000: acde 2a3b 67b0 133e 0a7c 91bd 8134 95bc
00000010: 99d3 df3d 3817 cf3d 8482 7b3d 9d0e a3bd
00000020: 2083 c9bb 30ab e63d add5 e6bd 4759 9fbc
00000030: 2588 093e 7123 2a3d 94f4 18be 4308 233d
00000040: 315b ebbd 46d9 22be 99c1 0fbe 5954 3c3e
00000050: a245 b73d b77b 1cbd 4dff b1bc 6d74 5d3d
00000060: e4d8 0e3e f713 923d 0d65 f9bd b4bf 293e
00000070: 8ead b3bc 0d4b bf3d 572a 17bd bb16 cc3d

blocks.0.layer_norm.weight f4 [32]
1.3158867 1.2422769 1.0524039 1.0042932 1.0019021 1.0063674 1.0205591 1.0503503
1.0182071 1.316441 0.93626523 1.0205245 0.994937 1.2846421 0.96595454 0.9727487
1.0007414 1.2203554 1.0006175 1.3259753 1.0415794 0.9965303 1.0607427 0.9543987
1.0788587 1.2951579 0.9926254 1.0525479 1.0560275 1.3175406 1.2195936 1.0319703
00000000: fa6e a83f ee02 9f3f 2cb5 863f ae8c 803f
00000010: 543e 803f a6d0 803f aea1 823f e171 863f
00000020: 9c54 823f 2481 a83f 14af 6f3f 8ca0 823f
00000030: 31b4 7e3f 276f a43f cc48 773f 0f06 793f
00000040: 4b18 803f 9b34 9c3f 3c14 803f 8fb9 a93f
00000050: 7952 853f 9c1c 7f3f 6bc6 873f 7953 743f
00000060: 0b18 8a3f bcc7 a53f b31c 7e3f e4b9 863f
00000070: e92b 873f 2ca5 a83f a51b 9c3f 9a17 843f

blocks.0.layer_norm.bias f4 [32]
0.27909234 0.25300795 0.049737453 0.007273678 0.0041478868 0.0042361887 0.028911915 0.018724717
0.0028630707 0.2835437 -0.053373702 0.023707008 0.00438865 0.2719314 -0.036955476 -0.016453186
-0.0021846585 0.24028575 0.0035802766 0.2870408 0.02095828 -0.0075628385 0.051849928 -0.0508274
0.018163305 0.2870541 -0.021550385 0.023922876 0.038414605 0.28394657 0.24351743 0.019245384
00000000: 31e5 8e3e 428a 813e 80b9 4b3d 0958 ee3b
00000010: ffea 873b bacf 8a3b aed8 ec3c 9464 993c
00000020: 5ba2 3b3b a42c 913e 629e 5abd 3335 c23c
00000030: aace 8f3b 983a 8b3e a05e 17bd d5c8 86bc
00000040: 7d2c 0fbb 780d 763e 13a3 6a3b 03f7 923e
00000050: b3b0 ab3c b0d1 f7bb 9760 543d 6430 50bd
00000060: 36cb 943c c1f8 923e 6f8a b0bc e8f9 c33c
00000070: a258 1d3d 7261 913e a25c 793e 7fa8 9d3c

last_layer.weight f4 [1, 32]
-0.3474112 -0.33437425 0.038531635 -0.0138422325 0.09464481 0.15626185 0.04459385 0.191803
0.15443979 -0.32799745 -0.035893552 0.19515318 0.0024502936 -0.32716838 -0.1037503 -0.1248363
-0.010381187 -0.37226957 0.1148051 -0.33520117 0.1174868 0.042237647 0.17513783 0.020526173
0.07218753 -0.27635503 0.10058109 0.18552884 0.17165874 -0.32629284 -0.34865174 0.13558497
00000000: e1df b1be 1a33 abbe 59d3 1d3d 88ca 62bc
00000010: 23d5 c13d 1b03 203e 0aa8 363d 0168 443e
00000020: 7725 1e3e 48ef a7be 1e05 13bd 3cd6 473e
00000030: 1b95 203b 9d82 a7be 0a7b d4bd 2daa ffbd
00000040: db15 2abc 1e9a bebe f01e eb3d 7d9f abbe
00000050: eb9c f03d 6201 2d3d 5557 333e 8126 a83c
00000060: 0ed7 933d 687e 8dbe 75fd cd3d 46fb 3d3e
00000070: 4fc7 2f3e db0f a7be 7b82 b2be c9d6 0a3e
