models/Gla_DOS.onnx (onnx, 206292 bytes, 9 tensors)

layer1.weight f4 [32, 1536]
000000 b9 e5 4a 3c 58 25 b6 3b 42 63 f1 bb ed 34 d9 3c
       0.012383872 0.005558651 -0.007366569 0.026514495
000010 a3 9b 61 bc 1e 77 5d 3b 14 2e bc 3b 01 9f bb ba
       -0.013770017 0.0033792923 0.0057427976 -0.0014314355
000020 43 35 f5 3c 23 12 1e bc f8 6c 99 3c 78 94 30 bb
       0.029932624 -0.009647879 0.018728718 -0.0026943963
000030 31 22 a7 3c 63 91 5c 3b c3 26 1a ba 83 79 11 bc
       0.020402046 0.0033655993 -0.000588041 -0.008879068
000040 3c 12 3a bc 98 bb 93 3c a0 49 54 3b ac ea 0c 3c
       -0.0113568865 0.018033788 0.0032392517 0.008600872
000050 79 5e 7a bc 71 1b de bc 41 d9 c2 bb ec 32 d0 bc
       -0.015281313 -0.027112694 -0.005946309 -0.025414906
000060 24 36 48 bb 6e 6a 19 3c 4a e9 b7 ba 59 2a e8 3b
       -0.0030549848 0.009363754 -0.0014031318 0.0070851264
000070 4f 91 16 bb 9e a7 79 3c ae a6 ec bc 3c bd 12 3b
       -0.0022974794 0.015237717 -0.028888073 0.0022390625
000080 4a 63 aa 3c 8b b1 68 3c 81 07 57 bc 9b 11 87 3a
       0.020799298 0.014202486 -0.013124348 0.001030493
000090 62 6c 16 bb 5a 9c 61 3c aa 0b 08 bd 70 9f 2d 3a
       -0.0022952785 0.013770187 -0.03321425 0.00066231843
0000a0 23 d9 db 3b c4 ce 40 bc 1b 19 40 bb f9 9d 1d bc
       0.0067092343 -0.011768047 -0.002931184 -0.009620183
0000b0 93 29 74 3c 55 b3 a7 3c fd 1c 7d bb 98 21 fe bb
       0.01490249 0.020471254 -0.0038622015 -0.0077554695
0000c0 45 05 17 bc ae 3a 84 bc 24 62 9d bc be bb a3 3c
       -0.009217565 -0.016141262 -0.019211836 0.019986983
0000d0 35 f0 be 3c 8e 5e 02 3c c0 5c b7 bc 99 a8 ce 3c
       0.023307899 0.007957114 -0.022383094 0.025226878
0000e0 7f 51 a0 bc 75 28 4c 3c bd 68 b6 3b ca 16 3f bc
       -0.01957011 0.012460818 0.005566685 -0.011663148
0000f0 65 c2 0d bb ed 44 4e bc b9 a4 5a bc 0b 4a 1a 3d
       -0.002163076 -0.012589675 -0.013344937 0.03766827
000100 27 cc 75 3c fa bb bc 3a 83 e4 26 bc 22 9b 38 3c
       0.015002287 0.0014399283 -0.010186317 0.011267455
000110 86 38 78 3c 97 83 03 3c 1d e8 5e 3c 1b ef 8a bc
       0.015150195 0.008026979 0.013605145 -0.016959717
000120 d2 68 bb bc 14 04 23 3b 40 41 0e bc ed f0 af bc
       -0.02287713 0.0024874257 -0.008682549 -0.021477187
000130 b3 00 4d 3c 80 c7 1b 3c e3 16 8d bc 21 ef ef 3a
       0.012512374 0.009508014 -0.017222827 0.0018305519
000140 af 95 5f bc 79 2d 26 3c da 0e ab bc c1 17 05 bd
       -0.013646527 0.010142677 -0.020881105 -0.032493357
000150 3d 89 83 3b 41 66 18 bc 36 98 eb ba 7c 37 54 39
       0.004014163 -0.009301723 -0.001797444 0.00020238565
000160 62 13 2a bc a5 2a bb 3b 47 a4 ca 3b 37 2e b4 bc
       -0.010380598 0.0057118707 0.006184134 -0.021994693
000170 a0 a6 9a bb 73 d9 a2 bc 26 26 b5 3b da 81 06 3c
       -0.0047195703 -0.019879078 0.0055282293 0.00820967
000180 ce c9 88 bc e0 49 af 3c 79 d6 88 bc 93 1b 72 bc
       -0.01669779 0.021397531 -0.016703831 -0.014777082
000190 9e c9 9a bc 2c b4 53 bb fa 74 e6 bb fe 1f 88 3c
       -0.018894967 -0.0032303436 -0.0070329877 0.016616818
0001a0 2e fc a0 3c 48 20 78 3c fc a9 61 3b 25 a9 8a 3b
       0.019651499 0.015144415 0.0034433594 0.0042315894
0001b0 25 f2 ca 3c e5 43 42 bc e8 00 1b 3c 13 ad 3c 3c
       0.024773667 -0.011857008 0.009460665 0.0115158735
0001c0 00 3b 43 bb 81 ac 14 bd 36 d2 64 bb 08 fb 5c 3c
       -0.0029789805 -0.036297325 -0.0034915335 0.013487585
0001d0 57 b3 05 3b 93 ce 5d bc 71 6a c3 bc 33 e1 2f bc
       0.0020401084 -0.013538021 -0.023854466 -0.010734844
0001e0 51 2b 60 3c f6 1d 4b 3c 52 3d a2 bc de d9 11 3c
       0.013682202 0.01239728 -0.01980463 0.008902041
0001f0 01 2e 83 bc 71 15 9d 3b 75 86 b4 bc 89 c6 b5 3c
       -0.016013147 0.004793816 -0.02203677 0.022189396
000200 5b 6b d5 3b c8 cd a7 3c eb 6d 82 3c fb a4 bc 3c
       0.006513042 0.020483866 0.015921554 0.023027888
000210 2d 77 f6 ba 10 8b f7 ba 6b 1d 5e 3b 75 de e3 3b
       -0.0018803828 -0.0018886048 0.0033892046 0.006954009
000220 0d 0a eb bb 9f 4e 20 bc 2a 9c 1a 3b 4f 75 a4 bc
       -0.007172829 -0.00978437 0.0023591616 -0.020075468
000230 aa fd f2 3b ac 69 74 ba 5d cd f4 3a 48 59 6a ba
       0.007415493 -0.00093236077 0.0018676926 -0.00089396955
000240 bd ff 18 3d 38 26 bb bc de c7 59 bc 48 69 82 b9
       0.037353266 -0.022845373 -0.013292281 -0.00024873973
000250 3c 58 55 3c cb d5 46 bc e9 17 6e bc d7 0c e4 bb
       0.013021525 -0.012135933 -0.014532068 -0.0069595384
000260 9c f3 e3 3b 91 08 50 bc 21 03 28 3c 9a ce fc 3c
       0.0069565307 -0.012697355 0.010254652 0.030860234
000270 7b ba 03 bc 03 ff 33 3c 14 9b 88 bc 51 b4 85 bb
       -0.008040066 0.0109860925 -0.01667551 -0.0040803333
000280 74 74 f1 bb a2 2e b4 3c 12 66 16 bc 2b b8 a0 bc
       -0.0073686186 0.021994893 -0.009179609 -0.019619068
000290 c3 68 a7 3c fc 80 1c bb ca 2f fd bb fe 35 04 3c
       0.020435696 -0.0023880592 -0.007726644 0.008069513
0002a0 e9 9e 00 bd aa 67 a5 3c 83 1a bd 3c 66 54 ed bc
       -0.03140155 0.020191032 0.02308393 -0.028970908
0002b0 3e 09 72 bc 63 2a 9f bc a1 76 c0 3c 4f 8f 99 bb
       -0.014772711 -0.019429391 0.023494067 -0.004686273
0002c0 ef 35 9d 3c 67 e2 e6 3b 70 ea d2 3c 9a ab b5 bc
       0.019190757 0.007046032 0.025746554 -0.022176553
0002d0 da df 8d bc d8 48 6e 3b 08 20 0b b8 c6 76 a2 3c
       -0.017318655 0.0036359336 -3.3170014e-05 0.019832026
0002e0 5c bf 5c 3c 7d 9a 2e bb 98 98 6a bc 37 3b 36 bc
       0.013473358 -0.0026642375 -0.014318608 -0.011122516
0002f0 e2 7e 5e ba 73 74 37 bc 4f 7c fe ba b9 ae 82 39
       -0.0008487535 -0.011197197 -0.0019415709 0.0002492571
000300 34 03 63 3c ae c7 4e 3c 2a f2 18 3c 35 03 21 bd
       0.013855744 0.01262085 0.00933508 -0.0393097
000310 40 e0 d3 bc b5 d0 9d 3c dd 81 e6 3c d8 b0 6d bc
       -0.025863767 0.019264558 0.028138096 -0.014507495
000320 b3 7d 09 3d 78 7a 24 3c 31 44 9f 3c 69 f7 a6 3b
       0.03356714 0.010038964 0.019441696 0.0050954116
000330 8a 7a 2b bc c2 7f f9 39 db f1 f8 bc 62 21 e5 ba
       -0.010466227 0.00047588168 -0.030388763 -0.0017481262
000340 1c aa 12 bd 57 03 61 3c 5a 1c 1e 3b a8 f1 0d 3c
       -0.03580676 0.013733706 0.0024125786 0.008663572
000350 03 f8 f1 3a 2a 00 90 bc 0f 98 a4 bc 47 65 81 3b
       0.0018460754 -0.017578203 -0.020092038 0.003948841
000360 f1 6a 38 bc 08 33 db bb c6 23 89 bc bc 80 9a bb
       -0.011255966 -0.006689433 -0.01674069 -0.0047150534
000370 49 e2 fb 3c 53 f7 58 3b c2 cd 8a bc 3d 1a b3 bc
       0.03074755 0.00331064 -0.016943816 -0.021863097
000380 a5 1d 93 3c 9a 61 36 3d 5a 46 5e bc 71 33 7a bc
       0.017958472 0.044526674 -0.013566578 -0.015271054
000390 81 0c b3 3c df f8 0e bc 64 95 cb bc da 7b b9 3c
       0.021856548 -0.008726328 -0.024851508 0.022642065
0003a0 8c 22 25 3c 03 73 18 bd d3 d2 e5 ba e0 9a d4 bb
       0.010079037 -0.03721906 -0.0017534144 -0.006488189
0003b0 8d 9b 1e 3c 5b 9a fc 3b 34 8d c1 3c 9a a9 76 bb
       0.009680641 0.0077088303 0.023626901 -0.0037637712
0003c0 ec 1d b9 bb 4f 0d bf bc cb be 41 bc f2 33 7b 3c
       -0.005649319 -0.023321776 -0.011825274 0.015332209
0003d0 5b aa 37 3a 60 8f 8a 3c 44 6a fb 3b df 22 06 bc
       0.0007006281 0.01691407 0.00767258 -0.008187025
0003e0 0f f5 86 bc e1 d7 5f bb a1 31 e7 bc 36 30 5e 3c
       -0.016474275 -0.0034155773 -0.028221907 0.013561299
0003f0 a6 af 61 bc a0 2f 2e 3a b4 db 08 3b 79 97 17 3c
       -0.013774788 0.000664467 0.0020882906 0.0092524225

layer1.bias f4 [32]
000000 c6 46 6b bb 11 dc ba 3c c7 7f 18 3c 18 31 b1 3b
       -0.0035900339 0.022810014 0.009307808 0.0054074638
000010 ac b6 9f 3c 89 9f 6b bc ef 02 a1 3c 73 be 44 ba
       0.019496284 -0.014381298 0.01965472 -0.0007505186
000020 f1 0f 9d 3c df 83 52 bc 5e f7 81 bc 30 df 2e 3c
       0.01917264 -0.012848823 -0.015865024 0.010673329
000030 15 fe d9 3a dc 33 e9 bb aa b9 7f 3c af aa 9b bc
       0.0016631508 -0.007116778 0.015608231 -0.019002287
000040 73 a1 9f bc a0 3c c2 3c 6c ed f7 3b 1d cc 86 bc
       -0.019486165 0.023710549 0.0075661447 -0.01645475
000050 fd 2c 8a bb 96 1c d0 bc 96 31 44 3c 38 b1 a3 3c
       -0.004216789 -0.025404256 0.011974713 0.019981965
000060 1f b8 1a bb fe e8 84 bc 68 72 6e bc 56 ab 8d 3a
       -0.002360828 -0.01622438 -0.014553644 0.0010808508
000070 2f df f9 bb e0 a4 b5 3c 58 33 b1 3c 2a 64 99 bc
       -0.0076254825 0.022173345 0.021630928 -0.01872452

layernorm1.weight f4 [32]
000000 ea 12 77 3f 0b 82 81 3f 16 b4 7e 3f 48 5b 7e 3f
       0.96513236 1.0117811 0.9949354 0.99358034
000010 54 ad 7f 3f f0 11 80 3f 75 f3 7d 3f 0f 71 7f 3f
       0.9987385 1.0005474 0.9919961 0.9978189
000020 d7 e6 78 3f 3c d5 7e 3f c5 97 7e 3f 82 26 81 3f
       0.97227234 0.9954412 0.9945033 1.0089877
000030 d7 54 7e 3f 98 52 85 3f 43 d4 7d 3f fe 24 7b 3f
       0.99348205 1.0415831 0.9915201 0.9810332
000040 2a 45 7f 3f 83 ca 7e 3f 96 d5 7d 3f 3e 1e 8b 3f
       0.9971491 0.9952776 0.9915403 1.0868604
000050 a8 17 80 3f 1c 54 7f 3f 4a 66 81 3f cd 4a 87 3f
       1.0007219 0.99737716 1.0109341 1.0569702
000060 e9 94 7f 3f af bb 7f 3f 19 b7 7d 3f 3e 9b 80 3f
       0.99836594 0.9989576 0.9910751 1.0047376
000070 f2 cb 7c 3f 08 41 76 3f 92 8c 7d 3f 50 26 80 3f
       0.98748696 0.9619298 0.9904262 1.0011692

layernorm1.bias f4 [32]
000000 02 71 d2 bb 0b 9e 31 3c be 30 de bc 80 b4 31 bc
       -0.006422163 0.010840903 -0.027122851 -0.010846257
000010 87 2b ef bb b9 5e f5 3c 3f 1b 84 bb 5c 77 29 bc
       -0.00729889 0.029952394 -0.0040315683 -0.010343399
000020 00 59 5c 3b b9 4a d0 bb 71 cb 33 bc ef f6 f1 3b
       0.0033622384 -0.006356564 -0.010973797 0.007384173
000030 23 5f 2f bb 54 c5 3b 3d 3d 85 76 3b 18 c5 7e 3c
       -0.0026759587 0.045842484 0.0037616037 0.0155499205
000040 0b 26 81 3b aa 3c 8c 3c 68 56 f6 bb ea 06 bc 3d
       0.0039413027 0.01711877 -0.0075176246 0.09181006
000050 f4 c3 2f b8 6b 94 06 bc a2 18 e3 3c 92 4c 96 3c
       -4.1905747e-05 -0.008214097 0.027721707 0.018347058
000060 1f ae 12 bc 6f 63 cb 3c 7c d2 61 bc df c9 11 3b
       -0.0089526465 0.024827687 -0.013783094 0.0022245569
000070 cd ea 96 bc 29 99 a1 3a b2 a4 b6 ba 2a 9f 18 bc
       -0.018422509 0.001232897 -0.0013934581 -0.009315291

blocks.0.fcn_layer.weight f4 [32, 32]
000000 9d eb d1 bd f0 91 05 3e 79 b5 6a bc fe 47 f9 3c
       -0.10250018 0.13043952 -0.014325493 0.030429836
000010 e9 fc a6 bd 5a 28 b1 bd 76 4f e8 bd 21 40 09 3e
       -0.081537075 -0.086502746 -0.11343281 0.1340337
000020 a4 30 91 3d 86 81 5a 3d bf a7 03 bd ef 37 3b bb
       0.070893556 0.05334618 -0.032142397 -0.0028567275
000030 e0 78 06 be 5e 2d c6 3d 89 5f 00 be b6 1f 27 be
       -0.13132048 0.09676622 -0.12536444 -0.1632069
000040 18 1a 07 3e 15 18 3e be f3 43 b3 bd 6f b2 08 3e
       0.13193548 -0.18563874 -0.08753195 0.13349317
000050 65 5c 4c 3d 5e 7a 06 be bf 40 de 3d 61 3f 47 be
       0.0498928 -0.13132617 0.10852193 -0.19457771
000060 8b 27 3b 3c f9 d8 76 3d 0b 0a 22 3e 04 eb bd bd
       0.011423002 0.060265515 0.15824144 -0.09273341
000070 9c 9e be 3d 42 74 15 3e bb bb 8f 3d 88 61 de 3d
       0.09307596 0.1459513 0.070182286 0.10858446
000080 7d 00 51 bc b0 ef c1 3d be da b6 3d 9a cf 90 3d
       -0.012756464 0.09469545 0.089284405 0.07070847
000090 22 73 03 be e3 54 e2 bd 86 c8 07 bc ad 29 43 3d
       -0.12836888 -0.11051347 -0.008287555 0.047647167
0000a0 12 51 ee bc b5 ef 27 bd c9 8f 14 3e d6 2d c4 3c
       -0.029091392 -0.041000087 0.14507975 0.023947638
0000b0 4f e9 2d 3d 4f 3a e5 3d 2a 7c e9 3d b5 e3 a2 bd
       0.04245883 0.11192762 0.114006355 -0.07953588
0000c0 a4 66 07 3e 5d de 6a 3c 3d 78 19 3e 8f d2 fb bd
       0.13222748 0.014335242 0.14987274 -0.1229602
0000d0 0c c2 1b 3d d3 cc 87 3a 0f 7e 86 bd 96 ee 80 3d
       0.038026854 0.0010360725 -0.065670125 0.06295507
0000e0 7e 95 05 bd 2f 80 98 3b d2 ae 23 3c 13 08 b4 bd
       -0.03261327 0.0046539526 0.009990411 -0.087906025
0000f0 4b 36 c0 bd 69 87 12 be ce 93 3f be f8 26 12 3d
       -0.093853556 -0.14309467 -0.18708727 0.035681695
000100 23 f3 d2 bd e2 2f 2e be 4a f6 34 3e 9e 23 5a 3d
       -0.10300281 -0.17010453 0.17672077 0.053256623
000110 99 37 b4 bc 4a 99 97 3d 32 8b fb 3d 56 d8 e5 bd
       -0.021999167 0.074022844 0.12282409 -0.112229034
000120 2c be d3 bd 74 62 d2 bd c3 de 2f bb d7 98 03 be
       -0.10339007 -0.10272685 -0.0026835657 -0.12851273
000130 59 15 e4 bd 66 ef 0a be 12 8b 9d 3d 81 ba 4e 3d
       -0.11136884 -0.13567886 0.07692541 0.050470833
000140 10 d2 00 bd 23 96 10 be 04 84 98 3c 72 24 a6 bd
       -0.03145033 -0.14119773 0.018617637 -0.0811242
000150 28 39 33 3e da d8 09 be 78 6b cb 3d f6 34 d4 bd
       0.17502272 -0.13461629 0.099326074 -0.10361664
000160 9b 86 c7 bd 89 85 3b 3e 13 da 5b 3d 28 0d 1c 3e
       -0.09742471 0.18312658 0.05367477 0.15239394
000170 e5 fd c5 3d 06 0f 2c 3b c6 71 99 bd 19 7d 6c 3d
       0.09667567 0.0026254072 -0.07492404 0.05773649
000180 4f 05 0a 3e cd 90 4e be eb 0d 85 3d 8b 5a ad 3d
       0.13478588 -0.20172425 0.06496795 0.08464535
000190 5d ff 07 bd 61 03 ca bd c8 36 1e bc eb ed 11 3c
       -0.033202518 -0.09863926 -0.009656616 0.008906822
0001a0 8c 50 0b 3e 59 c5 d2 3d 22 68 3e 3d b0 c7 01 be
       0.13604945 0.10291547 0.046486028 -0.12673831
0001b0 f7 bd be bd a7 5a b7 3d e3 b3 df bd 7e 51 11 bd
       -0.09313577 0.089528374 -0.109229825 -0.035478108
0001c0 7e 5c 32 3e 13 4c 09 be c5 3a 07 bd 41 76 e9 3c
       0.17418095 -0.13407926 -0.03301503 0.02849877
0001d0 ba 20 1c 3e d5 99 11 3e 94 90 17 3c 20 18 f4 3b
       0.15246859 0.14218839 0.009250779 0.007449165
0001e0 d9 a9 8c 3d 80 72 69 ba 6d e5 6d 3d 65 8d 15 bb
       0.06868333 -0.00089053065 0.058080126 -0.0022819873
0001f0 1c f9 c6 3d 3b 8f 4b bd 57 b2 bf bd 6e c5 05 3e
       0.097154826 -0.049697142 -0.093601875 0.13063595
000200 ee 84 e9 bc 08 8d be 3d 17 b0 f3 bd 07 c1 8b 3d
       -0.028505769 0.09304243 -0.11898821 0.068239264
000210 e7 82 34 bd 2d 81 27 be 25 ae db 3b b4 fd 76 bd
       -0.04407015 -0.1635787 0.0067041093 -0.060300544
000220 39 c4 fd 3c fd 8c 30 3e 45 40 47 bc 98 6c 40 3e
       0.030977355 0.17241283 -0.012161319 0.18791425
000230 6f b8 5f ba f7 de 4f 3e d4 21 ce 3d 0d 09 5a bd
       -0.00085342576 0.20299898 0.10065046 -0.053231288
000240 e4 72 bc 3d f0 a3 cd 3d 9d 0c 24 be eb 34 28 3e
       0.09201601 0.10041034 -0.16020437 0.16426437
000250 b9 13 40 bd d0 6d f2 bd 9c a0 2e be 6e 4d 41 3d
       -0.04689381 -0.11837351 -0.17053455 0.047192983
000260 ed 91 2a bd 7c 80 41 be a8 2d 5c 3c fe a7 57 3e
       -0.041643072 -0.18896669 0.01343862 0.21060178
000270 67 70 c6 3d 0d 73 e9 bd ac 56 ff 3d 3f 96 a6 3d
       0.09689408 -0.11398897 0.12467703 0.08134126
000280 40 a9 0e 3d 1f bc db bd 5f ee 2e be 32 18 38 bb
       0.034829378 -0.107292406 -0.17083119 -0.0028090593
000290 92 a5 c1 bd 0d dc 45 3e 0b f7 15 bd 22 1a 08 bd
       -0.09455408 0.19322224 -0.03661255 -0.033228047
0002a0 af fa 1e be 22 9a 23 bd 85 e3 8e bd 30 5f 93 3c
       -0.15525316 -0.039941914 -0.0697699 0.017989725
0002b0 8d e5 76 3c 21 3d 07 bc 32 63 ce 3c f1 b8 1e 3d
       0.015069378 -0.00825432 0.025193784 0.038750593
0002c0 39 eb 16 3e 47 48 dd bd d8 00 27 be e0 76 94 3d
       0.14738168 -0.108048014 -0.16308916 0.07249236
0002d0 f3 49 da 3d 2c 0a fe 3c e4 2d 61 bc 5e b8 78 bd
       0.10658636 0.03101071 -0.013743851 -0.0607227
0002e0 e5 08 16 be f2 01 e1 bd cc f8 6e 3d fa 0d 2b 3e
       -0.1465183 -0.10986699 0.05834274 0.1670455
0002f0 2b 93 11 be d3 f1 36 3b 6a a8 b5 3d ef f3 21 be
       -0.14216296 0.0027915135 0.08870013 -0.1581571
000300 2f d2 da bd 77 62 8d 3c 17 6f a9 3d c1 1c 09 3e
       -0.106846206 0.017258866 0.08273142 0.13389875
000310 82 7c e6 3d 46 98 30 3e 29 fb b4 3d cb ee b2 3d
       0.11254217 0.17245588 0.088369675 0.087369524
000320 e0 0a dd 3d 4f a6 84 3c 18 28 33 bc f7 30 f0 ba
       0.1079309 0.016192583 -0.010934852 -0.001832514
000330 e5 d4 ea bd bd 31 0d 3e fc 90 d5 3d a2 45 ff bd
       -0.11466388 0.13788505 0.10428044 -0.12464453
000340 1f 3d b8 3d df 26 8a 3d 3c 36 1c 3e 38 79 09 3e
       0.08996033 0.06745695 0.15255064 0.13425148
000350 7e e1 4c 3d 33 17 7b bb 5d c3 18 be b2 7f 7f bd
       0.050019734 -0.0038313388 -0.14918275 -0.06237764
000360 4b 20 1b 3e 05 d1 ae bd f7 b3 12 be 43 65 92 3d
       0.15149038 -0.08535961 -0.14326464 0.071482204
000370 8f 7f 0d 3e b8 83 da bd 85 d7 51 3d 24 b0 17 be
       0.13818191 -0.106696546 0.051230926 -0.14813286
000380 d9 35 36 be 34 5c 27 be 53 cb 1a 3e 61 b8 c9 bd
       -0.17793979 -0.16343766 0.15116625 -0.098496206
000390 2c c6 8d 3c da 57 83 bd 00 3d 02 be 37 ad f6 bd
       0.01730641 -0.06413241 -0.12718582 -0.12044757
0003a0 e0 7f 0d 3e 7a 15 6a bd fa 73 0b bd 3a 5a 03 3e
       0.13818312 -0.057149388 -0.03404615 0.12827387
0003b0 6e 3d a5 3c 30 9c ca bd fc 53 1b bd a7 1f 02 3e
       0.020170894 -0.09893072 -0.03792189 0.12707387
0003c0 c6 af a5 bd 47 2f 68 bd 21 63 30 3d 75 c2 3e be
       -0.08090167 -0.056685712 0.043063287 -0.18628867
0003d0 75 db d8 3d ad 37 8c bd 4f 92 fb bc 84 f5 0c 3c
       0.10588733 -0.06846557 -0.030709414 0.008603457
0003e0 fb b4 72 bd c3 f3 9d bd 70 b1 34 be 65 de 33 bd
       -0.059254628 -0.077125095 -0.17645812 -0.043913264
0003f0 dd 56 6e 3d 73 b0 fd 3b 9c 1c 12 3d e7 e9 00 3e
       0.058188308 0.0077419817 0.035671815 0.12589227

blocks.0.fcn_layer.bias f4 [32]
000000 81 4d 29 3e b1 6e b3 bd 66 6b ef bd 46 3f c6 3d
       0.16533472 -0.08761347 -0.116904065 0.09680037
000010 fc 23 bb bd a1 0e 83 3d c9 90 d4 3b 00 c2 af 3c
       -0.09137723 0.063992746 0.0064869863 0.021454811
000020 52 94 05 3d f1 15 0c be 3b d6 33 3e ed 51 e1 bd
       0.032612152 -0.13680245 0.17562191 -0.11001954
000030 88 d5 30 3e 37 c2 82 3d b8 23 e3 bd 85 42 98 bd
       0.17268956 0.063847 -0.11090797 -0.074345626
000040 c0 3e fa 3d 2f b0 e9 3d 87 d8 1a bc 39 ec 34 3e
       0.12219 0.114105575 -0.009451038 0.17668237
000050 44 43 94 3d 66 74 57 bd 00 56 a9 bd 24 2a 3b 3e
       0.072393924 -0.05260124 -0.08268356 0.18277794
000060 08 7f 02 3d 0c 6e 19 3d 6c ec 6f 3c c8 8b 12 3e
       0.031859428 0.037458465 0.01464377 0.14311135
000070 07 a8 da 3c 76 52 d9 3d 5c b0 6c 3d 19 81 44 bd
       0.02669145 0.10611431 0.057785377 -0.04797468

blocks.0.layer_norm.weight f4 [32]
000000 80 45 80 3f 4b e2 80 3f 4f 2e 86 3f 73 d5 80 3f
       1.002121 1.0069059 1.0482882 1.006514
000010 7c a1 83 3f c5 b5 87 3f 62 22 84 3f 0c 8c 7e 3f
       1.0283656 1.0602347 1.0322993 0.99432445
000020 a7 5e a0 3f 65 d2 82 3f 26 10 91 3f 37 b4 7e 3f
       1.2528886 1.0220457 1.1333053 0.99493736
000030 44 88 9b 3f 9f d2 7b 3f d0 8b 7f 3f 54 19 73 3f
       1.215096 0.9836826 0.9982271 0.9496052
000040 c8 dd 9e 3f a0 36 81 3f 48 30 7f 3f 24 c4 b6 3f
       1.2411432 1.0094795 0.99683046 1.4278607
000050 f9 1e 7c 3f cd 4d 81 3f fd fe b3 3f 32 1d 9f 3f
       0.9848476 1.0101868 1.4062191 1.2430785
000060 b8 24 9e 3f 9b c3 7f 3f 6a 11 8f 3f df 1c b3 3f
       1.2354956 0.99907845 1.1177189 1.3993186
000070 5d 31 80 3f e3 0e 82 3f ef 3a a3 3f 3f 94 80 3f
       1.0015064 1.0160793 1.275236 1.0045241

blocks.0.layer_norm.bias f4 [32]
000000 1e f4 31 ba bb ef f3 3b 9c 86 b5 3c c7 68 07 3c
       -0.00067883905 0.0074443496 0.022158913 0.008264727
000010 79 05 86 bc 0e bf 5a 3d ea 07 98 3c 21 09 4e 3b
       -0.016360031 0.05340486 0.018558461 0.0031438547
000020 2c d9 86 3e e7 a9 50 3c 8a 8a 68 3d 52 2d 24 bc
       0.26337564 0.01273582 0.056772746 -0.010020571
000030 3f ee 76 3e 73 8d 47 ba 7e 26 91 3b 8a c6 4c bd
       0.24114321 -0.0007612325 0.0044296375 -0.04999403
000040 55 1f 7d 3e 4b 6d c6 3b 82 1e 85 bb d4 cd aa 3e
       0.24718983 0.006055509 -0.0040624747 0.3336016
000050 88 b6 ef bc 6c b7 56 3c b3 5b a6 3e e8 66 82 3e
       -0.029261842 0.013105255 0.32491836 0.25469136
000060 a8 c8 80 3e 66 af 35 bb 4e c7 97 3d e6 95 a3 3e
       0.2515309 -0.0027722954 0.07411061 0.319503
000070 23 b4 b2 3b 44 65 41 3c 9f cc 87 3e 94 c2 c3 3a
       0.005453603 0.011803929 0.265233 0.0014935308

last_layer.weight f4 [1, 32]
000000 73 29 94 3d ab e2 23 bd 68 d9 70 3d 79 4d c3 3d
       0.07234468 -0.04001109 0.058801085 0.09536261
000010 10 33 2d 3e 3d d1 1c 3e 56 c3 8c 3d c1 56 21 37
       0.1691401 0.15314193 0.06873195 9.616547e-06
000020 a8 0d 94 be 02 e7 fc 3d 04 70 05 3e 40 8c ff bc
       -0.2891667 0.12348749 0.13031012 -0.031194806
000030 21 36 b9 be c9 c1 29 3c 26 be 18 bd 0b 0d 79 bc
       -0.3617411 0.010361143 -0.037290715 -0.015200864
000040 01 1a b2 be 4f 0f f0 3d 51 4e f5 3d bf b4 ac be
       -0.34785464 0.1172167 0.11977828 -0.33731648
000050 24 59 c1 bd 92 e7 18 3e 16 33 b6 be 11 e2 b9 be
       -0.0944083 0.14932087 -0.3558585 -0.36305287
000060 96 11 a6 be 8e f1 0f 3e 64 ac 61 3e d8 83 b2 be
       -0.32435292 0.1405699 0.22038418 -0.34866214
000070 ef 0c 8b bc 59 e1 36 3e d0 98 a5 be c0 17 1e 3d
       -0.01697394 0.17859401 -0.3234315 0.03859687
